…
  value: auto
target_update_interval:
  desc: null
  value: 1
ent_coef_optimizer:
  desc: null
  value: "Adam (\nParameter Group 0\n    amsgrad: False\n    betas: (0.9, 0.999)\n\
    \    capturable: False\n    differentiable: False\n    eps: 1e-08\n    foreach:\
    \ None\n    fused: None\n    lr: 0.003\n    maximize: False\n    weight_decay:\
    \ 0\n)"
lr_schedule:
  desc: null
  value: <function get_schedule_fn.<locals>.<lambda> at 0x7816ce52a0e0>
policy:
  desc: null
  value: "CnnPolicy(\n  (actor): Actor(\n    (features_extractor): NatureCNN(\n  \
    \    (cnn): Sequential(\n        (0): Conv2d(3, 32, kernel_size=(8, 8), stride=(4,\
    \ 4))\n        (1): ReLU()\n        (2): Conv2d(32, 64, kernel_size=(4, 4), stride=(2,\
    \ 2))\n        (3): ReLU()\n        (4): Conv2d(64, 64, kernel_size=(3, 3), stride=(1,\
    \ 1))\n        (5): ReLU()\n        (6): Flatten(start_dim=1, end_dim=-1)\n  \
    \    )\n      (linear): Sequential(\n        (0): Linear(in_features=50176, out_features=512,\
    \ bias=True)\n        (1): ReLU()\n      )\n    )\n    (latent_pi): Sequential(\n\
    \      (0): Linear(in_features=512, out_features=256, bias=True)\n      (1): ReLU()\n\
    \      (2): Linear(in_features=256, out_features=256, bias=True)\n      (3): ReLU()\n\
    \    )\n    (mu): Linear(in_features=256, out_features=5, bias=True)\n    (log_std):\
    \ Linear(in_features=256, out_features=5, bias=True)\n  )\n  (critic): ContinuousCritic(\n\
    \    (features_extractor): NatureCNN(\n      (cnn): Sequential(\n        (0):\
    \ Conv2d(3, 32, kernel_size=(8, 8), stride=(4, 4))\n        (1): ReLU()\n    \
    \    (2): Conv2d(32, 64, kernel_size=(4, 4), stride=(2, 2))\n        (3): ReLU()\n\
    \        (4): Conv2d(64, 64, kernel_size=(3, 3), stride=(1, 1))\n        (5):\
    \ ReLU()\n        (6): Flatten(start_dim=1, end_dim=-1)\n      )\n      (linear):\
    \ Sequential(\n        (0): Linear(in_features=50176, out_features=512, bias=True)\n\
    \        (1): ReLU()\n      )\n    )\n    (qf0): Sequential(\n      (0): Linear(in_features=517,\
    \ out_features=256, bias=True)\n      (1): ReLU()\n      (2): Linear(in_features=256,\
    \ out_features=256, bias=True)\n      (3): ReLU()\n      (4): Linear(in_features=256,\
    \ out_features=1, bias=True)\n    )\n    (qf1): Sequential(\n      (0): Linear(in_features=517,\
    \ out_features=256, bias=True)\n      (1): ReLU()\n      (2): Linear(in_features=256,\
    \ out_features=256, bias=True)\n      (3): ReLU()\n      (4): Linear(in_features=256,\
    \ out_features=1, bias=True)\n    )\n  )\n  (critic_target): ContinuousCritic(\n\
    \    (features_extractor): NatureCNN(\n      (cnn): Sequential(\n        (0):\
    \ Conv2d(3, 32, kernel_size=(8, 8), stride=(4, 4))\n        (1): ReLU()\n    \
    \    (2): Conv2d(32, 64, kernel_size=(4, 4), stride=(2, 2))\n        (3): ReLU()\n\
    \        (4): Conv2d(64, 64, kernel_size=(3, 3), stride=(1, 1))\n        (5):\
    \ ReLU()\n        (6): Flatten(start_dim=1, end_dim=-1)\n      )\n      (linear):\
    \ Sequential(\n        (0): Linear(in_features=50176, out_features=512, bias=True)\n\
    \        (1): ReLU()\n      )\n    )\n    (qf0): Sequential(\n      (0): Linear(in_features=517,\
    \ out_features=256, bias=True)\n      (1): ReLU()\n      (2): Linear(in_features=256,\
    \ out_features=256, bias=True)\n      (3): ReLU()\n      (4): Linear(in_features=256,\
    \ out_features=1, bias=True)\n    )\n    (qf1): Sequential(\n      (0): Linear(in_features=517,\
    \ out_features=256, bias=True)\n      (1): ReLU()\n      (2): Linear(in_features=256,\
    \ out_features=256, bias=True)\n      (3): ReLU()\n      (4): Linear(in_features=256,\
    \ out_features=1, bias=True)\n    )\n  )\n)"
actor:
  desc: null
  value: "Actor(\n  (features_extractor): NatureCNN(\n    (cnn): Sequential(\n   \
    \   (0): Conv2d(3, 32, kernel_size=(8, 8), stride=(4, 4))\n      (1): ReLU()\n\
    \      (2): Conv2d(32, 64, kernel_size=(4, 4), stride=(2, 2))\n      (3): ReLU()\n\
    \      (4): Conv2d(64, 64, kernel_size=(3, 3), stride=(1, 1))\n      (5): ReLU()\n\
    \      (6): Flatten(start_dim=1, end_dim=-1)\n    )\n    (linear): Sequential(\n\
    \      (0): Linear(in_features=50176, out_features=512, bias=True)\n      (1):\
    \ ReLU()\n    )\n  )\n  (latent_pi): Sequential(\n    (0): Linear(in_features=512,\
    \ out_features=256, bias=True)\n    (1): ReLU()\n    (2): Linear(in_features=256,\
    \ out_features=256, bias=True)\n    (3): ReLU()\n  )\n  (mu): Linear(in_features=256,\
    \ out_features=5, bias=True)\n  (log_std): Linear(in_features=256, out_features=5,\
    \ bias=True)\n)"
critic:
  desc: null
  value: "ContinuousCritic(\n  (features_extractor): NatureCNN(\n    (cnn): Sequential(\n\
    \      (0): Conv2d(3, 32, kernel_size=(8, 8), stride=(4, 4))\n      (1): ReLU()\n\
    \      (2): Conv2d(32, 64, kernel_size=(4, 4), stride=(2, 2))\n      (3): ReLU()\n\
    \      (4): Conv2d(64, 64, kernel_size=(3, 3), stride=(1, 1))\n      (5): ReLU()\n\
    \      (6): Flatten(start_dim=1, end_dim=-1)\n    )\n    (linear): Sequential(\n\
    \      (0): Linear(in_features=50176, out_features=512, bias=True)\n      (1):\
    \ ReLU()\n    )\n  )\n  (qf0): Sequential(\n    (0): Linear(in_features=517, out_features=256,\
    \ bias=True)\n    (1): ReLU()\n    (2): Linear(in_features=256, out_features=256,\
    \ bias=True)\n    (3): ReLU()\n    (4): Linear(in_features=256, out_features=1,\
    \ bias=True)\n  )\n  (qf1): Sequential(\n    (0): Linear(in_features=517, out_features=256,\
    \ bias=True)\n    (1): ReLU()\n    (2): Linear(in_features=256, out_features=256,\
    \ bias=True)\n    (3): ReLU()\n    (4): Linear(in_features=256, out_features=1,\
    \ bias=True)\n  )\n)"
critic_target:
  desc: null
  value: "ContinuousCritic(\n  (features_extractor): NatureCNN(\n    (cnn): Sequential(\n\
    \      (0): Conv2d(3, 32, kernel_size=(8, 8), stride=(4, 4))\n      (1): ReLU()\n\
    \      (2): Conv2d(32, 64, kernel_size=(4, 4), stride=(2, 2))\n      (3): ReLU()\n\
    \      (4): Conv2d(64, 64, kernel_size=(3, 3), stride=(1, 1))\n      (5): ReLU()\n\
    \      (6): Flatten(start_dim=1, end_dim=-1)\n    )\n    (linear): Sequential(\n\
    \      (0): Linear(in_features=50176, out_features=512, bias=True)\n      (1):\
    \ ReLU()\n    )\n  )\n  (qf0): Sequential(\n    (0): Linear(in_features=517, out_features=256,\
    \ bias=True)\n    (1): ReLU()\n    (2): Linear(in_features=256, out_features=256,\
    \ bias=True)\n    (3): ReLU()\n    (4): Linear(in_features=256, out_features=1,\
    \ bias=True)\n  )\n  (qf1): Sequential(\n    (0): Linear(in_features=517, out_features=256,\
    \ bias=True)\n    (1): ReLU()\n    (2): Linear(in_features=256, out_features=256,\
    \ bias=True)\n    (3): ReLU()\n    (4): Linear(in_features=256, out_features=1,\
    \ bias=True)\n  )\n)"
batch_norm_stats:
  desc: null
  value: '[]'
batch_norm_stats_target:
  desc: null
  value: '[]'
_logger:
  desc: null
  value: <stable_baselines3.common.logger.Logger object at 0x781534569a80>
